Assets/ML-Agents/Examples/Startup/RollerBall.onnx (onnx, 74443 bytes, 7 tensors)

network_body._body_endoder.seq_layers.0.weight f4 [128, 8]
000000 86 2c fa be c6 41 0b 3f 97 c4 ea 3d c5 5c 9b 3e
       -0.48862094 0.5439724 0.11463278 0.30344215
000010 02 dc 25 3e cb 4a b7 3e 8e ef 18 3e 6c 7e 2b bf
       0.16197208 0.3579925 0.14935133 -0.6698978
000020 8c 14 1d 3e 32 73 37 bd 84 a1 75 3e a3 3e 3b be
       0.1533987 -0.044787593 0.23987395 -0.18285613
000030 1a 7f 2e 3d 9b c1 0c be 7c a9 83 bf 20 cf 65 3e
       0.042601682 -0.1374573 -1.0286098 0.22442293
000040 78 b5 c8 be 31 08 0d be f7 5c 04 3f 65 7c fa be
       -0.3920095 -0.13772656 0.51704353 -0.4892303
000050 22 d3 9b be bf 71 9b be 8e 46 1e 3e 02 74 21 bd
       -0.3043452 -0.3036022 0.15456602 -0.039417274
000060 d5 af a2 be 17 62 13 be 1d 60 ca be 96 93 42 3e
       -0.31774774 -0.14392887 -0.39526454 0.19001612
000070 c2 fb 66 3f 56 e6 bb 3e db 7b 1f bf e2 78 27 3e
       0.902279 0.3669917 -0.62298363 0.16354707
000080 35 9c 46 be ac 5c b4 3d b1 da a3 3e fe c8 cb 3e
       -0.19395526 0.08806738 0.32002786 0.39801782
000090 81 6f 82 3e ef 3d c5 be 93 96 22 3e f8 7d 93 3d
       0.25475696 -0.38523814 0.15877752 0.07201761
0000a0 fa 49 3c be ed 5c a4 bd c2 fe 98 bd 89 d4 ff 3d
       -0.18387595 -0.08025537 -0.07470466 0.1249171
0000b0 16 a1 0b bf 9c ee 08 3f 86 47 8e 3d ea 6f 94 bd
       -0.5454267 0.5348909 0.06947236 -0.072479084
0000c0 55 21 aa be 82 ad ae be 06 dd 82 3e 87 e3 c4 be
       -0.33228555 -0.3411675 0.25559253 -0.3845484
0000d0 96 2b d5 bd 4e fc 71 3e af 85 4d 3e 1a fe c0 3e
       -0.10408704 0.23631403 0.20070527 0.37693864
0000e0 9d e8 bb 3d 4b e3 94 3e 72 45 ee 3e 74 fa 76 3f
       0.09175227 0.2907966 0.46537358 0.9647591
0000f0 42 d9 2b bf 8a 2d aa be 95 8f 95 bb 84 07 12 bf
       -0.67128384 -0.3323787 -0.0045642355 -0.5704272
000100 12 85 be bb 56 aa c1 3d 55 d3 25 be 8d 4c 70 3e
       -0.005814203 0.09456317 -0.16193898 0.23466702
000110 ba 0a 1c 3d 35 fb 90 3e b4 61 f3 bd 40 d4 d6 3e
       0.038096167 0.28316656 -0.1188387 0.4195881
000120 3a 88 49 bf 51 9b 6b bf 04 4a 6c be 8c b8 fc be
       -0.7872349 -0.9203387 -0.2307511 -0.49359548
000130 61 f4 63 bd 0a 61 d8 be 67 59 80 3f ce 6e 2e 3f
       -0.05565298 -0.42261535 1.0027283 0.68137825
000140 18 63 6a 3f f1 86 22 bd 65 e5 91 be 60 73 16 3f
       0.91557455 -0.03967947 -0.28495327 0.587698
000150 20 54 c3 be 1c 21 f1 bd ea bc 82 3d c8 32 d5 be
       -0.3815012 -0.11773893 0.06383689 -0.41640306
000160 30 7d f3 bd 85 51 69 3c 95 8e 06 3f e1 a1 5c 3e
       -0.11889112 0.014240627 0.5256131 0.21546127
000170 bc 10 f4 be 6c 5d 87 be 19 fd a1 3d a4 f1 ec b8
       -0.47669017 -0.26438463 0.07909603 -0.00011298366
000180 6f 2c 61 be 66 b5 28 be ed fa dd be 21 c7 1f 3e
       -0.21989606 -0.16475448 -0.43355504 0.15603305
000190 c0 8e 1e 3e 9a 34 72 bf ab f1 98 be e2 cc 8f 3e
       0.15484142 -0.94611514 -0.29871878 0.28086
0001a0 31 ae ca 3d 58 39 e4 3e 3f a9 07 3e de 7e c7 bd
       0.098965056 0.44575 0.13248156 -0.09740995
0001b0 c4 cd c2 be a2 e3 2b 3e c6 bd da 3d c3 ae ca be
       -0.38047612 0.16786054 0.10680728 -0.39586458
0001c0 f0 f2 06 bf 2e e6 09 3f 14 32 e5 be 73 7b f5 3d
       -0.52714443 0.5386685 -0.4476477 0.11986437
0001d0 73 dd a6 be 83 27 50 bf 9c 58 a8 3d b7 ff 65 be
       -0.32590827 -0.8131029 0.08220026 -0.22460829
0001e0 95 9a f5 be 22 f9 cc 3e d7 b3 7e bd 05 03 3e 3f
       -0.479695 0.40033823 -0.062183227 0.7422336
0001f0 42 4e 63 3e e5 f9 7c be 28 83 a6 3d 28 95 c2 3d
       0.22197822 -0.24704702 0.08130485 0.095011055
000200 be 6c 1f bf 85 a7 95 3d fd fb 4d bd 1e 2f 7f 3e
       -0.622753 0.073073424 -0.050289143 0.24920318
000210 29 b4 7f 3e 9c ba 40 3f ad 96 f4 bd 3b 86 11 3f
       0.2497107 0.75284743 -0.119428016 0.56845444
000220 c4 a7 56 3e bf 8d 2c bd 6c e0 e5 bd 21 c1 c5 3d
       0.20962435 -0.042127367 -0.11224446 0.09655977
000230 69 24 8a 3e 63 69 29 be 40 ad c0 bd f9 8c 5d be
       0.26980904 -0.16544108 -0.09408045 -0.21635808
000240 dc 13 53 bf 4f a4 51 3f 43 a3 21 3d 1b 47 ae be
       -0.8245218 0.8189134 0.03946234 -0.34038624
000250 8a 18 e4 3c 72 13 87 be 9e 27 c8 be 24 4e 9e 3a
       0.027843732 -0.26382023 -0.39092726 0.0012077731
000260 ab 9c 6d 3e 88 fa 0e bf 5b b4 62 bd dc 4c f0 be
       0.23204295 -0.5585103 -0.05534778 -0.4693364
000270 3e 4d 93 3d cc 8c ef 3c be d2 92 be c7 0a 2e be
       0.07192467 0.029241942 -0.2867641 -0.16996299
000280 69 8b c1 3e 15 d7 98 3e e4 e1 82 3c 61 cd d5 3e
       0.37801674 0.29851595 0.015976854 0.41758254
000290 7c 0e 03 be 32 32 93 be 12 f7 f7 3e 6d 51 8b 3e
       -0.12798494 -0.28749233 0.48430687 0.2721056
0002a0 08 fe f8 3e cf 8f db be 9c 85 99 be bf 6f 6b 3e
       0.4863131 -0.42883155 -0.29984748 0.22991847
0002b0 d2 f7 13 3e 28 30 41 3e 06 e3 a8 bd da b2 ea be
       0.14450005 0.18866026 -0.08246426 -0.45839578
0002c0 84 6a 25 bf 18 24 ac 3e d2 19 19 3d ce 24 49 3e
       -0.64615655 0.33621287 0.03737814 0.19642946
0002d0 9e a6 89 be 9b 29 5a 3e d2 99 bb be c1 2f 5d 3e
       -0.2688493 0.21304934 -0.36640793 0.21600248
0002e0 6f a5 26 3e 36 8a ac 3e 10 b5 90 3e 44 ea 07 3e
       0.16274045 0.33699197 0.2826314 0.13272959
0002f0 ca c3 bb 3d 53 17 c2 be b2 18 09 bf a7 71 5d be
       0.09168203 -0.3790842 -0.5355331 -0.21625386
000300 6d 18 05 be ce 8a 3a 3e 3a 6a e0 bd 19 bc c7 3e
       -0.12997599 0.18217012 -0.10957761 0.39010695
000310 53 d4 a1 be 87 40 b3 3d a0 e4 d6 3b ff b0 d9 3b
       -0.31607303 0.08752542 0.006558016 0.006643414
000320 42 70 e7 3d 22 ac b3 be f3 54 36 3f 49 06 9c be
       0.11300708 -0.35092264 0.7122337 -0.30473545
000330 2d 1f eb 3e 50 e0 33 be 18 78 68 3d 26 b7 b0 be
       0.45922223 -0.17566037 0.056755155 -0.3451473
000340 c9 9b b3 3e f5 bf fa be 83 6b 49 3e c1 d0 0e bf
       0.35079792 -0.48974577 0.19669919 -0.55787283
000350 ec 00 e4 bd 14 6f 68 3e 6e c1 48 3e 1e 23 cf bd
       -0.11132988 0.22698623 0.19605038 -0.1011412
000360 10 28 15 bf a5 8e 19 3e 13 32 a3 bd 13 64 8f 3e
       -0.58264256 0.14995821 -0.07968535 0.28006038
000370 6c 85 36 3e d6 21 0b 3b 86 8a 5e be 66 69 4c 3e
       0.17824334 0.0021229885 -0.2173253 0.19962081
000380 5c ea 8d bc a8 b4 d9 be 0e a3 1a be d9 51 11 3e
       -0.017323665 -0.42520642 -0.15101263 0.14191379
000390 79 3e aa 3e 9a db 2f bf c0 cc 91 be ac 94 3f 3f
       0.33250788 -0.6869446 -0.28476524 0.7483623
0003a0 ff 77 80 be d7 e2 e2 3c 24 ee 53 3f 1b da 30 bf
       -0.2509155 0.027696056 0.8278525 -0.690828
0003b0 36 e5 40 bf 83 dd 0e be 08 c3 25 3f df 28 8b 3e
       -0.7534975 -0.13951688 0.6475072 0.2717962
0003c0 1c 26 d8 3e 50 57 20 be 85 07 f3 3e 8e 27 c2 3d
       0.42216575 -0.15658307 0.47466674 0.09480201
0003d0 3f 61 2a 3e d6 a9 45 bf 88 18 f5 be c1 bc e1 be
       0.16638659 -0.77212274 -0.47870278 -0.4408932
0003e0 11 e7 45 be e1 a8 b7 3e 63 3c 8e 3e 72 4f 63 3e
       -0.19326426 0.35871032 0.27780446 0.22198275
0003f0 eb 12 18 3e d2 4b 0d 3f 73 da 0b bf 77 8c 06 bf
       0.14850967 0.5519382 -0.546302 -0.5255808

network_body._body_endoder.seq_layers.0.bias f4 [128]
000000 0f e6 8b 3d e3 f1 b8 3c e1 f6 e4 3c f1 f6 b7 3c
       0.068309896 0.022576278 0.027949752 0.022456618
000010 ed 41 dc 3c ff a6 cc bc 22 76 56 bc 29 b5 9f 3d
       0.026886905 -0.024981974 -0.0130896885 0.077982254
000020 bf 59 75 bd 32 89 41 3c 6f 73 fe bc 8a 4d 48 3d
       -0.05990004 0.011812495 -0.031060902 0.048902072
000030 d7 bd 08 3d 16 2d b0 bb bd 71 cc bc 8b 3f a3 3d
       0.03338417 -0.0053764684 -0.024956578 0.07971104
000040 71 b0 22 bc 7c 1f 8f 3c 36 7b 84 3d ed 80 62 3d
       -0.009929762 0.017471068 0.06468813 0.055298734
000050 9b c6 21 3c fb 81 4c bd 49 5e aa 3d 38 fe b9 3c
       0.009874011 -0.049928647 0.08318765 0.022704229
000060 f0 bd 8d bd a4 a9 86 3d 68 9a 82 bc 40 85 1e 3d
       -0.06920993 0.06575325 -0.015942767 0.038701296
000070 fa 7c 9c bb 36 df a4 3c 7c 2f a9 3d a0 97 8d bb
       -0.0047756406 0.020125967 0.0826101 -0.0043210536
000080 66 e6 25 3c f3 de 5a 3d 39 af 4c 3d 1e 53 ad 3d
       0.010125732 0.053435277 0.049971793 0.08463119
000090 ce f6 77 3d 1f 71 4d 3b ac 76 16 bd 24 79 b1 3c
       0.060538106 0.0031347943 -0.036734268 0.02166421
0000a0 ac 0f 1f bc 3c b3 ad 3d b7 4a 00 3d f1 00 70 3d
       -0.009708326 0.08481452 0.031321254 0.058594648
0000b0 31 bd e9 3c 7c 3b cd 3c f4 f3 7b bc 6d 04 4a 3c
       0.028532596 0.025052778 -0.015377987 0.012330157
0000c0 40 87 a3 3c a1 ce b7 3b 86 a9 67 3d 85 16 56 3c
       0.019961953 0.005609349 0.056558155 0.0130668925
0000d0 b8 98 3d 3d ae e1 50 3d e0 8f 5c 3c 28 0c 83 bc
       0.046288222 0.050996475 0.013462037 -0.015997007
0000e0 b6 e4 9e bb a6 a7 5b 3d 35 e4 b3 3c b0 e7 28 3d
       -0.004849042 0.05362668 0.021959404 0.04123658
0000f0 2b 3c 8c 3b 88 f3 6d 3d 18 0e 21 bd 0c 5f c8 3b
       0.0042796335 0.058093578 -0.03932008 0.006114846
000100 cc 1a 84 3d 56 52 be 3c be 2f d9 3c 6e 93 fd 3c
       0.064504236 0.02323262 0.026512023 0.030954089
000110 3b da 18 3d bd 79 c2 3c 4c 5b 83 3d 8b f5 c7 3c
       0.037317496 0.02373969 0.06413898 0.024409076
000120 1b 19 4d 3d df 0b 20 3d 61 64 1c bd e3 91 6a bd
       0.05007277 0.03907382 -0.038181666 -0.057268035
000130 71 54 30 3d 91 38 3b bd 34 16 bf 3d 71 e4 f6 bb
       0.04304928 -0.045708243 0.09330407 -0.0075345566
000140 1d 6c 3e 3d ae 74 10 3d 61 8c 13 3b 7e 8f 61 3c
       0.046489824 0.035267524 0.0022514092 0.013767121
000150 6a 40 05 3d 8a 6d 3b 3d ad d0 94 3d d0 b9 1b 3d
       0.032532133 0.04575876 0.07266364 0.038019
000160 66 2b d6 bb b8 ad 8c 3a 80 da 81 bc 48 a0 28 bc
       -0.006535935 0.0010732925 -0.01585126 -0.01029212
000170 eb 9f 12 3d a7 03 20 3d 8b 44 12 bd 37 7f 27 bd
       0.03579704 0.039065983 -0.0357099 -0.040892806
000180 5e cd 97 3d d2 e7 b1 3d 48 20 1a bd 62 7e 82 3d
       0.074122176 0.08686794 -0.037628442 0.06371762
000190 89 32 1e bd b9 5f e7 3c d8 67 d3 bb bd d9 f9 3c
       -0.038622413 0.028243886 -0.006451588 0.030499334
0001a0 fe 34 0d bd 3e b3 21 3d 99 ee 61 bc 46 1c 4b 3d
       -0.034474365 0.03947758 -0.013789796 0.04958751
0001b0 3a ae 6d 3d 45 7c 10 3d 41 78 f2 3c 00 23 e1 b9
       0.058027484 0.035274763 0.029598357 -0.0004294142
0001c0 bc d6 6c 3d 1f c9 b3 3c e2 68 54 bd e4 8f b3 3c
       0.057821974 0.021946488 -0.051857837 0.021919198
0001d0 85 f9 d7 3c 00 79 77 3c 5e 66 e2 3c dc c5 9b 3d
       0.026364097 0.015104532 0.027636703 0.07606098
0001e0 61 13 11 3c a5 b4 21 bd 13 59 35 3d 9a 89 5a 3d
       0.008854718 -0.039478917 0.0442744 0.053353883
0001f0 6d 27 77 3d 8e b3 c3 bc 6d 7d 6b bc 4b f0 d3 3c
       0.060340334 -0.02388933 -0.014373166 0.025871417

network_body._body_endoder.seq_layers.2.weight f4 [128, 128]
000000 64 5a b0 3c 4f ba 75 3d 26 83 f4 bd b4 d3 91 bd
       0.021527477 0.05999213 -0.11939077 -0.07120457
000010 0e 72 ad 3c c7 39 ae bd f2 e9 65 3c 4c 9d 16 3e
       0.02117255 -0.08507114 0.014032828 0.14708441
000020 91 a7 50 3d ae b5 e7 bd a6 4c 7a 3d c3 87 9c bb
       0.050941054 -0.113139495 0.061108254 -0.0047769262
000030 3a af 1d 3e 6d 5e 13 be f4 77 ee 3c ea e2 14 bd
       0.15398875 -0.1439149 0.029109932 -0.036349215
000040 53 ff 5f 3e d6 f1 11 3e be 31 47 3e 83 e5 0a bd
       0.21874742 0.1425241 0.19452569 -0.033910286
000050 e4 da 5e 3e ce f9 38 bd fd 09 30 be de 71 65 bb
       0.21763188 -0.045160107 -0.1719131 -0.0035010497
000060 3d 68 53 3e ba ae 34 be 30 95 d5 3c 7b 07 b1 bd
       0.20645232 -0.17644778 0.026072115 -0.08644005
000070 16 5f 1e 3e 92 36 44 3d 4d f0 ab 3d 25 73 09 bd
       0.1546596 0.047903605 0.08395443 -0.033557076
000080 9b f8 9e bd 81 5e a4 bd 33 96 36 bd 7e 10 9a bd
       -0.077622615 -0.08025838 -0.044576835 -0.07522677
000090 fe 61 d4 3c 9a 40 33 be a2 4c de 3d f4 f6 20 3d
       0.025925633 -0.17505112 0.1085446 0.039298013
0000a0 9a 6a c2 3d fd 44 80 3d c1 b0 12 bd 23 b8 e1 bd
       0.09492989 0.062631585 -0.035813097 -0.110214494
0000b0 3f 59 93 bc 09 be 16 3e 8f 53 87 3d 81 5c 13 3d
       -0.017986892 0.1472093 0.066077344 0.03597689
0000c0 e1 0d 78 bd 54 14 03 be 6e e2 83 3d 4b aa a1 3c
       -0.06056011 -0.12800723 0.064396724 0.019734522
0000d0 f4 34 5d 3d 64 9e 8e 3c a0 d3 d1 3c fe e7 b9 bc
       0.05400558 0.01740951 0.025613606 -0.02269363
0000e0 ef 2c 09 bd cf e1 07 3e 7d e4 4c 3d b3 2e 20 bd
       -0.033490118 0.13269733 0.05002259 -0.039107036
0000f0 ff ad 3c bd 08 a0 71 3d b4 71 ab 3d 55 c5 f4 bc
       -0.046064373 0.05899051 0.083712965 -0.029879251
000100 1f 9d 41 bb f7 83 6f bc 65 a7 0c bd 99 6e 14 be
       -0.0029543114 -0.014618865 -0.034339327 -0.14495315
000110 73 5a 43 bc 58 fe 71 3d 71 b1 a1 bc e9 4a 24 3d
       -0.01192342 0.05908045 -0.019737931 0.040110502
000120 6c 80 9a 3d 28 b0 ff 3d 59 a7 87 3d 91 ee 8d bd
       0.07544026 0.12484771 0.06623716 -0.069302686
000130 9e 41 0d be 0f 8d 20 3e d3 89 3f 3e 83 f2 11 3e
       -0.13794562 0.1567881 0.1870492 0.14252667
000140 7e d7 63 3d 38 f3 38 3d 17 99 53 3d 8f 82 b2 3c
       0.05562543 0.045153826 0.05165967 0.02179077
000150 18 1b 2d 3e 48 f8 ae bc d9 83 63 3d ef 38 97 bd
       0.16904867 -0.021358624 0.05554566 -0.07383906
000160 f3 cb 53 3d 94 4f 1e bd 34 e9 89 3d f8 09 1d bd
       0.051708173 -0.03865011 0.06733933 -0.038339585
000170 61 7e 37 3e 4f 4c 68 3e 03 40 ef 3c bf e7 d3 3d
       0.17919303 0.2268536 0.029205328 0.103469364
000180 3a cd 52 3d d3 38 d5 3d 5e 8b 4f be e2 52 ab 3c
       0.05146525 0.10411229 -0.20268008 0.020913545
000190 38 7b c6 bd c3 8e 10 3d 24 29 03 3e e0 c1 01 3e
       -0.09691471 0.0352924 0.12808663 0.12671614
0001a0 0a f1 f6 bd d4 b1 f2 3d c7 b5 d3 3d 79 fc 19 be
       -0.12057693 0.11850324 0.10337406 -0.15037717
0001b0 da e9 fe 3d 43 45 ec bd 9b ac a3 3d 37 54 b1 bd
       0.124469474 -0.11536648 0.07991906 -0.08658641
0001c0 7b cc 6b bc 04 ca d9 bd 85 3e 04 3e 94 9e 81 3d
       -0.014392014 -0.106342345 0.12914474 0.063290745
0001d0 de e1 dd 3c 16 a3 02 be a0 38 87 ba f3 6c 2c 3d
       0.02708524 -0.12757525 -0.0010316558 0.04209609
0001e0 cb 02 97 3d 5a eb 8f 3d 76 8b 09 bd bd 60 26 3e
       0.073735796 0.070273116 -0.033580266 0.1624784
0001f0 68 68 0e 3e da 59 d0 3d 1c 60 a7 bd a9 ff 03 bd
       0.13907015 0.10173388 -0.08172628 -0.03222624
000200 0a a5 1e bd 10 a3 0d 3e 42 ac 48 3d 7a 00 a3 bd
       -0.038731612 0.13831735 0.048992403 -0.07959075
000210 a2 f2 9b bd cf 8e c6 3c 3f 9a 10 bd af 6a 62 3e
       -0.07614638 0.024238018 -0.03530335 0.22111009
000220 0b 5e 68 be 6e 0b 1f bd 58 d6 30 3e 03 ee 15 be
       -0.22692125 -0.03882926 0.17269266 -0.14641576
000230 a3 e4 56 3d b8 ac 2e 3d dc c9 e4 bd c1 4c 0a be
       0.05246414 0.042645186 -0.11171314 -0.13505842
000240 c2 dd 34 bb e8 a5 0c 3b 82 77 07 bb 3f 1a bd 3d
       -0.0027597998 0.0021461193 -0.0020670597 0.09233522
000250 c4 e0 3f bd 83 0b 22 3e 2b 44 cc 3b f7 f9 21 be
       -0.046845213 0.15824704 0.006233712 -0.1581801
000260 22 f5 90 bd 28 c9 8f bd a2 fb d2 3d a6 6d ef bd
       -0.070780054 -0.070207894 0.103019014 -0.11690836
000270 a0 d7 6c 3d e3 73 10 bd 9c 63 41 3d 1c e6 93 bc
       0.057822824 -0.03526677 0.047214136 -0.01805406
000280 fa e9 8b bc 20 19 54 b8 51 8e 67 bd f9 ae e0 bd
       -0.017079342 -5.056814e-05 -0.056532208 -0.109708734
000290 da a3 8d 3d 8d b6 21 3e f7 26 9f bd f0 6a 77 3d
       0.06916018 0.15792294 -0.07771104 0.060404718
0002a0 e7 90 87 bd 36 47 1e 3c 62 c7 fd 3d d1 35 21 3d
       -0.06619435 0.009660533 0.12391545 0.039357964
0002b0 26 06 59 be cd 58 37 3b 22 aa 90 bd 1e 34 1d 3e
       -0.21193752 0.0027976513 -0.070637 0.15351912
0002c0 92 fa 9a 3d df f0 aa bb dc db 82 bd 35 26 ee bc
       0.07567324 -0.0052167024 -0.06389591 -0.029070953
0002d0 f8 9a 61 3d 47 92 ab 3d 78 c9 69 bd fb d9 bf bd
       0.05507943 0.083775096 -0.0570769 -0.09367748
0002e0 eb eb 06 3e 43 53 04 3e b8 6c ec bc 66 52 11 be
       0.13175933 0.12922387 -0.028860435 -0.14191589
0002f0 38 5b 89 3c de e6 ca bd ac ad 8a 3d a3 d5 60 bd
       0.01676713 -0.09907316 0.067714065 -0.05489124
000300 d8 52 b5 3d de 04 03 be 20 24 aa 3d 6e d8 76 3b
       0.08853692 -0.12794825 0.083076715 0.0037665623
000310 1f 7e 0b 3d 29 51 93 bd ea 93 52 bd ef 86 46 bd
       0.034055825 -0.071932144 -0.051410593 -0.048468526
000320 3f df 48 3c 5b 48 56 bd 13 8e a2 bd 7c 7c a2 bd
       0.012260257 -0.052315097 -0.07937255 -0.079339
000330 af b6 33 bd 7b b9 6f 3d aa ef 39 3d c8 86 86 bd
       -0.043875393 0.058526497 0.045394577 -0.06568676
000340 fa 97 0b 3d 3f e7 aa bd c8 80 32 be 09 10 1b 3d
       0.034080483 -0.08344888 -0.17431939 0.03785709
000350 c3 bc c1 3d c3 2c 47 3e aa 1e 58 bd c1 e3 65 bd
       0.094598316 0.19450669 -0.05276362 -0.056125406
000360 ed 19 6f bd ad 12 7c bb 3c b0 11 be 14 84 3d be
       -0.058374334 -0.003846328 -0.14227384 -0.18507415
000370 b2 23 bc 3d 70 01 9f 3d f6 7e 06 bc 35 8d e8 bd
       0.09186496 0.07763946 -0.008208981 -0.11355058
000380 66 41 5a be 64 8b 98 39 13 95 13 3c 00 72 9a bd
       -0.2131401 0.00029095553 0.00900771 -0.07541275
000390 d8 f1 74 bd ba 62 f2 bd 3c 40 0d 3e ac 7b ef bd
       -0.059800953 -0.11835237 0.13794035 -0.116935104
0003a0 89 d3 16 bb b3 7e 2c 3c 42 d0 a5 3d e0 ed df bd
       -0.0023014268 0.010528254 0.08096363 -0.10934043
0003b0 85 ee c4 3d 79 7f 73 bd ff 04 8c bd 9e 51 b4 bc
       0.096158065 -0.05944774 -0.068368904 -0.022011574
0003c0 e0 e2 17 3d 3f d6 c3 bd a5 95 11 bd 65 07 8b 3d
       0.0370816 -0.095623486 -0.035543103 0.0678852
0003d0 4e 14 97 bd ad ad a9 3d 50 cb 04 be 66 e1 6d 3d
       -0.0737692 0.08285079 -0.12968183 0.058076285
0003e0 a7 95 87 bd 0c c2 0c 3d 34 79 de bc c7 9d b8 bb
       -0.06620341 0.034364745 -0.027157404 -0.005634043
0003f0 87 b3 2b bd 80 c6 9b bb 2f 3e 43 3d dc d0 18 3e
       -0.041919257 -0.0047538877 0.047666725 0.14923424

network_body._body_endoder.seq_layers.2.bias f4 [128]
000000 dd b9 0e 3c ab 02 5e bc e8 cb ef 3b 08 d1 5a bc
       0.008711305 -0.013550441 0.0073180087 -0.013355501
000010 d7 04 16 3d 3f 90 79 bb ec cf 44 3d 39 b5 ac 3b
       0.03662571 -0.0038080362 0.048049852 0.005270627
000020 2b a5 2e 3d 08 46 58 3d 51 70 17 3c 4b b7 8f 3d
       0.042637985 0.052801162 0.009243087 0.07017382
000030 22 70 7c 3d cd 30 08 3d 13 80 95 3c 99 ad 51 3d
       0.061630376 0.033249665 0.018249547 0.051190946
000040 88 9f 8a 3d 60 52 b8 bc 00 e3 83 3c 8e 18 e5 ba
       0.067687094 -0.022500217 0.016099453 -0.0017478631
000050 a4 30 ae 3c 3f f1 21 3c a2 83 85 3c 31 c3 42 3d
       0.021263428 0.009884178 0.016298119 0.04754943
000060 ea d3 58 3d 0e 8e 46 3c 8f 42 06 bb 6b ec 4b 3d
       0.052936472 0.012118829 -0.002048645 0.049786013
000070 d1 bb 21 3c 3b 38 76 3d 34 fb 62 3d 05 fa 80 3d
       0.009871439 0.06011222 0.055415347 0.062976874
000080 c2 c6 1b 3d 36 38 98 3c b6 11 78 bb 33 cb 09 bc
       0.038031347 0.018581491 -0.0037852353 -0.008410263
000090 e2 1f 56 3d c6 66 0b bd dc 3f 3d 3c e5 4e 34 3d
       0.0522765 -0.03403356 0.01155087 0.044020552
0000a0 b9 0c 34 3d 09 c8 59 bc ed 04 88 bc 27 92 4d 3d
       0.043957446 -0.013292321 -0.016603911 0.05018821
0000b0 42 67 47 3b 95 ae b6 3b 68 3e ab bc 8a 26 9c 3c
       0.0030426537 0.005575011 -0.020903781 0.019061346
0000c0 16 76 5c 3d b7 25 7a bb 8f 46 85 3c 75 31 fe 3c
       0.053823553 -0.0038169452 0.016268997 0.031029442
0000d0 bd ff 27 3a 63 56 22 bc 4e 23 a7 bb c0 f7 87 3c
       0.00064086524 -0.0099082915 -0.005100644 0.016597629
0000e0 7b 98 22 3d be a3 31 3d 1e 6a 44 3d 1e fa 58 3c
       0.039696198 0.043369047 0.047952764 0.013243226
0000f0 b1 c1 b0 3d bd b4 0a 3d 85 24 54 3d de 0c 78 3c
       0.08630694 0.03386377 0.05179264 0.0151397865
000100 77 43 70 3d 9b a7 8e 3a 7e cf 49 3d 84 9e 21 3c
       0.05865809 0.001088369 0.049270146 0.009864453
000110 18 c8 81 3d 81 d3 16 3d 8c 49 8d 3d 5d 71 4a 3d
       0.06336993 0.0368228 0.068987936 0.049424518
000120 37 7c f9 3c 8c 92 56 3d 04 28 08 3c 27 a7 0b 3d
       0.030454738 0.05238585 0.008310322 0.034094956
000130 35 2f 1f 3c 4f 00 40 3d c8 2d 96 3d 39 28 51 3d
       0.009715845 0.046875294 0.07332951 0.05106375
000140 bd 34 37 bc e7 72 80 3c a9 a8 43 bb 8a b7 6a b9
       -0.011182007 0.01567979 -0.0029855168 -0.00022384353
000150 96 e1 a0 3d ef 78 53 3d 71 9b 6d 3c ec 75 39 bc
       0.07855527 0.051629003 0.014502392 -0.011319619
000160 89 0e da 3c 9a 55 35 bc f1 77 82 3d 6f 1a 1d bc
       0.026618259 -0.011067772 0.06370533 -0.009588822
000170 6f 9b 26 3d e5 ff 53 3d 2f 01 12 3d af e7 5d 3d
       0.040675577 0.051757712 0.03564566 0.05417603
000180 d0 fb 3c 3d 62 5e 28 3c 83 83 4a ba 79 ea 46 3c
       0.046138585 0.010276409 -0.0007725285 0.012140864
000190 22 cf bb 3c 9b 22 0c 3d 22 db d7 3c ee b6 aa bc
       0.022925917 0.03421269 0.026349608 -0.02083918
0001a0 d9 92 41 3d 04 4e 0b bc e7 bc 36 3d 66 85 4a 3d
       0.047259185 -0.008502487 0.044613745 0.049443625
0001b0 60 bd 77 3d 59 cc df 3c 36 78 b6 3b be 12 da 3b
       0.060483336 0.02731912 0.0055685295 0.0066550663
0001c0 df ee dc bc ef f3 82 3c a2 84 84 bc 7d 86 5f bb
       -0.026969371 0.015985457 -0.016176526 -0.003410726
0001d0 3e 5d 96 bc bf 25 ab bc 45 07 03 bd 0a a4 17 3d
       -0.018355008 -0.020892022 -0.031989355 0.037021674
0001e0 6b 38 20 3d 85 50 0b 3c 72 e0 c4 3c ca f4 94 3b
       0.039116304 0.008503084 0.024032805 0.0045457827
0001f0 ea 38 31 3d de fe 0d 3d 29 b2 05 bd 59 ae 6c 39
       0.043267168 0.03466689 -0.03264061 0.00022571663

action_model._continuous_distribution.log_sigma f4 [1, 2]
000000 4e cc 83 bd 91 7f 7b bd
       -0.064354524 -0.061400954

action_model._continuous_distribution.mu.weight f4 [2, 128]
000000 51 33 c0 bc 9d c9 e5 3c 95 bf 51 bc c1 06 77 bc
       -0.02346197 0.028050238 -0.012802024 -0.015077294
000010 e4 44 55 bc c9 e9 a6 3c 87 ee a1 3d fb 23 83 bc
       -0.013016913 0.02037515 0.079068236 -0.016008368
000020 e1 8d 8a 3c d1 61 1d bd 08 48 f2 bc bb d0 50 bd
       0.016913356 -0.038423363 -0.029575363 -0.05098031
000030 ff ac 84 bd c1 e6 4d bd d3 8a 3a 3d f3 90 81 3d
       -0.06478309 -0.050268892 0.04554255 0.06326475
000040 f1 73 a2 bd 3e 30 e9 3c 33 1f d6 3c 45 8a 31 3d
       -0.0793227 0.028465386 0.026137924 0.043344755
000050 95 d7 85 3d 9d f7 fb bc 63 fa ac 3c 0c 79 0d 3c
       0.0653526 -0.03075772 0.021115487 0.008634817
000060 c7 c4 88 3d ed 21 05 3d 40 b1 37 bd 05 42 9e 3d
       0.06678157 0.032503057 -0.044846773 0.07727436
000070 e1 6e 92 ba f6 ea 14 bd ed e3 d4 bd 52 32 d2 3c
       -0.001117196 -0.03635689 -0.10395036 0.02565876
000080 e5 74 6b 3b 44 60 35 3c b7 cb c1 3c fd 44 1f 3d
       0.003592783 0.011070315 0.02365671 0.03888415
000090 2e a4 0e bc c2 c4 dd ba cb e5 12 3d d0 7b b3 3c
       -0.008706136 -0.00169196 0.03586368 0.021909624
0000a0 95 1d 58 3d 46 2c 7a 3c af 4d 3b 3c 0e 9f 0d bd
       0.052762587 0.015269345 0.011432095 -0.034575514
0000b0 5b 86 19 3d 5f 62 9a bc 44 db e1 3a 99 f2 73 3b
       0.037481647 -0.018845735 0.0017231484 0.0037223457
0000c0 82 2a 5e bd ca 7a 8d 3c 88 1d 6a 3d 6a ec 5d 3d
       -0.054239757 0.017270464 0.05715707 0.05418054
0000d0 7e 27 aa 3b aa 23 1e 3c 3a 26 91 3c 3c 96 e8 3c
       0.005192696 0.009652058 0.017718423 0.02839195
0000e0 4f db c0 bc b3 c7 46 3d 7b 26 08 bd c4 63 89 3d
       -0.023542074 0.04853029 -0.033239823 0.06708482
0000f0 f9 2e 43 bd 1c ab aa 3d 70 aa ba 3c e2 29 96 bc
       -0.04765222 0.08333418 0.022786349 -0.018330518
000100 eb ac 14 bc 8d d9 f6 3c 6e a1 07 3d 99 65 92 3d
       -0.00907443 0.030133033 0.033112936 0.071482845
000110 f7 ff 62 bd 3a f3 16 bd f8 b0 2f bd 17 5a 9f 3d
       -0.05541989 -0.036853053 -0.04289338 0.07780855
000120 e0 c9 47 bc cc d6 cb 3d 71 30 a9 3c 67 6d 30 bd
       -0.012194127 0.09953079 0.020652981 -0.043073084
000130 9b 3f 9e bb 76 30 a8 bd d6 07 d6 3d 53 f4 90 bc
       -0.0048293597 -0.08212368 0.10450713 -0.017694628
000140 c4 a0 f9 bb 26 64 33 3d 59 b7 6a b9 bc ff 18 3c
       -0.0076180417 0.04379668 -0.00022384281 0.009338316
000150 d2 4a d7 3d ba 8a 0b 3d ce 22 81 3c 28 97 2c 3c
       0.10512318 0.034067847 0.015763666 0.010534085
000160 e4 f9 a8 bb f6 af 39 3c 53 c9 78 bd 7e 75 0a 3d
       -0.0051567424 0.011333456 -0.060738873 0.033803456
000170 8d 07 49 bd 94 70 cb 3d f6 9d ab 3d c6 6d 1f bd
       -0.049079467 0.09933582 0.08379738 -0.038923047
000180 0d d2 f1 3b f4 c0 fe 3c bb b9 1e 3d 2c e4 5b 3c
       0.0073797763 0.031097867 0.038751345 0.0134211
000190 35 80 09 bc 84 7e 18 bc a6 f1 b6 3b 96 9e ae 3c
       -0.008392383 -0.009307507 0.005583006 0.021315854
0001a0 90 fe af 3c 08 ef 57 3d c9 dc 56 bb ea e7 2a bd
       0.02148369 0.052718192 -0.0032785407 -0.041725077
0001b0 c1 0d fd bc 32 71 b8 bd 2a 2a 5a 3c f8 ec b7 bb
       -0.030890347 -0.09005965 0.013315717 -0.0056129657
0001c0 68 05 ee 3b 63 77 f6 ba 48 8a 7d 3d 21 28 7e bc
       0.007263828 -0.001880389 0.061899453 -0.015512497
0001d0 20 ee 38 3d 56 b9 e7 bb a0 65 cf 3c 27 91 c5 bc
       0.04514897 -0.0070716543 0.025317013 -0.024117066
0001e0 04 45 71 3d c6 db 31 3d df eb 10 3d 91 0c 62 3d
       0.05890371 0.043422483 0.035381194 0.055187766
0001f0 cd 16 95 bd ea 44 08 bc 37 aa d7 3b be c3 b8 bc
       -0.072797395 -0.008317212 0.0065815705 -0.022554275
000200 d5 69 4c 3c f3 b7 92 bc a6 5a 1f bb 01 e2 ae 3b
       0.012476404 -0.01790998 -0.0024315505 0.0053370004
000210 b5 12 07 bd aa 76 60 3d a4 33 cf 3c 15 00 8c 3b
       -0.032976825 0.054800667 0.025293179 0.0042724707
000220 74 5f cc 3d 45 23 6c 3d 12 61 d4 3c 96 e4 85 3a
       0.09979144 0.057650823 0.025925193 0.0010215219
000230 5b bd 4c bd 2d b7 a1 3c 20 c9 11 3d 18 6c 8c 3d
       -0.04998527 0.019740665 0.0355922 0.06856555
000240 f3 6d 67 bd 84 73 b1 3c 99 5e f1 bc fd 53 f0 bc
       -0.05650134 0.021661527 -0.029464053 -0.029336924
000250 4d 11 03 bc b3 ce 2b 3d 3f f3 1b 3d a2 4d 73 bd
       -0.00799973 0.04194517 0.038073774 -0.05940021
000260 74 0b 09 bc f8 d7 77 3d b8 5e d8 bc 75 d5 61 bd
       -0.008364547 0.0605087 -0.026412353 -0.05513521
000270 bb 6f ff bc 9b f1 4f 3d 88 11 ef 3c 22 a8 9c bd
       -0.031181207 0.050767522 0.029183164 -0.07649256
000280 04 aa 54 bd 3c d8 9a bd f4 b5 99 3b 8e 0d 19 3b
       -0.051919952 -0.07560775 0.00469088 0.0023354026
000290 1d 51 c4 bd 6a fd 71 3c 62 40 4e bd 42 fc a0 bd
       -0.09585784 0.014769891 -0.05035437 -0.07860614
0002a0 33 0c 69 3d 55 d7 c2 3c cc 44 d3 3c d7 ad a2 bb
       0.0568964 0.023784319 0.02578964 -0.004964571
0002b0 01 b3 10 bd 44 c1 e5 3b 10 8e 13 3d f2 fc 03 bd
       -0.03532696 0.0070115644 0.036024153 -0.03222365
0002c0 d4 16 1d 3d d3 39 3f 3d 05 15 04 bd 21 c5 b2 3d
       0.03835185 0.046686005 -0.03224661 0.087290056
0002d0 9a da 48 3d 3e 52 95 3c 6f 8a af 3c 76 51 25 3d
       0.0490366 0.018227693 0.021428315 0.04036089
0002e0 1d ce 4a 3d 00 af 64 bd 88 06 49 bd 80 d5 1b bc
       0.04951297 -0.055830956 -0.049078494 -0.009511352
0002f0 16 11 93 3d a7 6c bd bc 6c 76 d4 3d ca 45 12 3a
       0.07180993 -0.023123099 0.1037415 0.00055798574
000300 29 27 50 bd ac b3 28 bc da 04 5c bd bc 02 0b bd
       -0.050818596 -0.010296743 -0.053715564 -0.033938155
000310 27 73 01 bd e6 46 f9 bc 14 8b 0c bd 58 fe 56 3d
       -0.03160396 -0.030429315 -0.034312323 0.052488655
000320 a0 2b 50 bd aa 25 5c bd 22 72 36 3d 4b 93 80 3c
       -0.050822854 -0.053746857 0.04454244 0.015695235
000330 0e a5 06 3d 55 53 cb 3c ef 20 9e bb 9d ea 9a 3d
       0.032872252 0.02482001 -0.0048257033 0.0756428
000340 1f b0 e7 3c 05 c3 25 bd 19 b5 3e bd 6c 62 fa 3c
       0.028282223 -0.04046919 -0.046559427 0.03056451
000350 c3 b2 66 bd e4 8d 8d 3d 49 a1 ef 3c 44 c1 c0 3c
       -0.056322824 0.06911829 0.029251711 0.023529656
000360 4d d0 24 bd 1c 00 5a bc 92 31 36 bd b7 4b 80 bc
       -0.040237714 -0.01330569 -0.044480868 -0.015661104
000370 bc 62 cf 3c a2 78 92 bc cc c8 56 bc cc 66 62 bc
       0.025315635 -0.017879788 -0.013109397 -0.013818454
000380 60 42 1f bd b4 63 c4 bc 9d 9a d1 3c be f7 3d 3d
       -0.03888166 -0.023973323 0.02558642 0.046378843
000390 08 01 0c bd 71 1d 34 bd 97 d8 1c bd 7a 4c 59 3c
       -0.03418067 -0.04397339 -0.038292494 0.013262862
0003a0 1f 0e 81 3d 95 7f 3d 3b 0b 60 8f bd 54 7e 44 bd
       0.063015215 0.0028915156 -0.070007406 -0.04797204
0003b0 30 c0 d1 3c a6 54 34 bc 00 da 9c bc d1 6c a1 bb
       0.025604337 -0.01100651 -0.01914692 -0.004926302
0003c0 57 22 1d bc d8 8e 29 bd 50 ef 89 3b a6 19 b2 3b
       -0.009590707 -0.041395992 0.0042094365 0.0054351864
0003d0 57 fb 89 3c d1 23 10 3d 51 d5 e8 39 83 fb 47 3c
       0.016843481 0.035190407 0.0004440942 0.012205961
0003e0 c2 aa 95 3d 51 3d 76 3c d1 ff 37 3d 82 a6 0a bd
       0.0730796 0.015029267 0.0449217 -0.0338502
0003f0 b0 70 c0 3c 04 40 7c bd f7 ae eb 3c f8 b5 92 3c
       0.023491234 -0.061584488 0.028769953 0.017909035

action_model._continuous_distribution.mu.bias f4 [2]
000000 46 69 e1 bc da 04 3d bc
       -0.027516019 -0.011536801
